{"backend": "tensorflow", "class_name": "Model", "config": {"output_layers": [["bilinear_up_sampling2d_1", 0, 0]], "input_layers": [["input_1", 0, 0]], "layers": [{"inbound_nodes": [], "class_name": "InputLayer", "config": {"dtype": "float32", "batch_input_shape": [null, 512, 512, 1], "sparse": false, "name": "input_1"}, "name": "input_1"}, {"inbound_nodes": [[["input_1", 0, 0, {}]]], "class_name": "Conv2D", "config": {"activation": "linear", "bias_regularizer": null, "strides": [2, 2], "data_format": "channels_last", "kernel_size": [7, 7], "dilation_rate": [1, 1], "kernel_constraint": null, "padding": "same", "trainable": true, "bias_constraint": null, "activity_regularizer": null, "filters": 64, "use_bias": true, "name": "conv1", "kernel_initializer": {"class_name": "VarianceScaling", "config": {"seed": null, "distribution": "uniform", "mode": "fan_avg", "scale": 1.0}}, "bias_initializer": {"class_name": "Zeros", "config": {}}, "kernel_regularizer": {"class_name": "L1L2", "config": {"l1": 0.0, "l2": 4.999999873689376e-05}}}, "name": "conv1"}, {"inbound_nodes": [[["conv1", 0, 0, {}]]], "class_name": "BatchNormalization", "config": {"epsilon": 0.001, "momentum": 0.95, "moving_variance_initializer": {"class_name": "Ones", "config": {}}, "scale": true, "gamma_initializer": {"class_name": "Ones", "config": {}}, "axis": 3, "trainable": true, "gamma_regularizer": null, "moving_mean_initializer": {"class_name": "Zeros", "config": {}}, "beta_initializer": {"class_name": "Zeros", "config": {}}, "name": "bn_conv1", "beta_constraint": null, "center": true, "gamma_constraint": null, "beta_regularizer": null}, "name": "bn_conv1"}, {"inbound_nodes": [[["bn_conv1", 0, 0, {}]]], "class_name": "Activation", "config": {"activation": "relu", "trainable": true, "name": "activation_1"}, "name": "activation_1"}, {"inbound_nodes": [[["activation_1", 0, 0, {}]]], "class_name": "MaxPooling2D", "config": {"strides": [2, 2], "pool_size": [3, 3], "data_format": "channels_last", "name": "max_pooling2d_1", "padding": "valid", "trainable": true}, "name": "max_pooling2d_1"}, {"inbound_nodes": [[["max_pooling2d_1", 0, 0, {}]]], "class_name": "Conv2D", "config": {"activation": "linear", "bias_regularizer": null, "strides": [1, 1], "data_format": "channels_last", "kernel_size": [1, 1], "dilation_rate": [1, 1], "kernel_constraint": null, "padding": "valid", "trainable": true, "bias_constraint": null, "activity_regularizer": null, "filters": 64, "use_bias": true, "name": "res2a_branch2a", "kernel_initializer": {"class_name": "VarianceScaling", "config": {"seed": null, "distribution": "uniform", "mode": "fan_avg", "scale": 1.0}}, "bias_initializer": {"class_name": "Zeros", "config": {}}, "kernel_regularizer": {"class_name": "L1L2", "config": {"l1": 0.0, "l2": 4.999999873689376e-05}}}, "name": "res2a_branch2a"}, {"inbound_nodes": [[["res2a_branch2a", 0, 0, {}]]], "class_name": "BatchNormalization", "config": {"epsilon": 0.001, "momentum": 0.95, "moving_variance_initializer": {"class_name": "Ones", "config": {}}, "scale": true, "gamma_initializer": {"class_name": "Ones", "config": {}}, "axis": 3, "trainable": true, "gamma_regularizer": null, "moving_mean_initializer": {"class_name": "Zeros", "config": {}}, "beta_initializer": {"class_name": "Zeros", "config": {}}, "name": "bn2a_branch2a", "beta_constraint": null, "center": true, "gamma_constraint": null, "beta_regularizer": null}, "name": "bn2a_branch2a"}, {"inbound_nodes": [[["bn2a_branch2a", 0, 0, {}]]], "class_name": "Activation", "config": {"activation": "relu", "trainable": true, "name": "activation_2"}, "name": "activation_2"}, {"inbound_nodes": [[["activation_2", 0, 0, {}]]], "class_name": "Conv2D", "config": {"activation": "linear", "bias_regularizer": null, "strides": [1, 1], "data_format": "channels_last", "kernel_size": [3, 3], "dilation_rate": [1, 1], "kernel_constraint": null, "padding": "same", "trainable": true, "bias_constraint": null, "activity_regularizer": null, "filters": 64, "use_bias": true, "name": "res2a_branch2b", "kernel_initializer": {"class_name": "VarianceScaling", "config": {"seed": null, "distribution": "uniform", "mode": "fan_avg", "scale": 1.0}}, "bias_initializer": {"class_name": "Zeros", "config": {}}, "kernel_regularizer": {"class_name": "L1L2", "config": {"l1": 0.0, "l2": 4.999999873689376e-05}}}, "name": "res2a_branch2b"}, {"inbound_nodes": [[["res2a_branch2b", 0, 0, {}]]], "class_name": "BatchNormalization", "config": {"epsilon": 0.001, "momentum": 0.95, "moving_variance_initializer": {"class_name": "Ones", "config": {}}, "scale": true, "gamma_initializer": {"class_name": "Ones", "config": {}}, "axis": 3, "trainable": true, "gamma_regularizer": null, "moving_mean_initializer": {"class_name": "Zeros", "config": {}}, "beta_initializer": {"class_name": "Zeros", "config": {}}, "name": "bn2a_branch2b", "beta_constraint": null, "center": true, "gamma_constraint": null, "beta_regularizer": null}, "name": "bn2a_branch2b"}, {"inbound_nodes": [[["bn2a_branch2b", 0, 0, {}]]], "class_name": "Activation", "config": {"activation": "relu", "trainable": true, "name": "activation_3"}, "name": "activation_3"}, {"inbound_nodes": [[["activation_3", 0, 0, {}]]], "class_name": "Conv2D", "config": {"activation": "linear", "bias_regularizer": null, "strides": [1, 1], "data_format": "channels_last", "kernel_size": [1, 1], "dilation_rate": [1, 1], "kernel_constraint": null, "padding": "valid", "trainable": true, "bias_constraint": null, "activity_regularizer": null, "filters": 256, "use_bias": true, "name": "res2a_branch2c", "kernel_initializer": {"class_name": "VarianceScaling", "config": {"seed": null, "distribution": "uniform", "mode": "fan_avg", "scale": 1.0}}, "bias_initializer": {"class_name": "Zeros", "config": {}}, "kernel_regularizer": {"class_name": "L1L2", "config": {"l1": 0.0, "l2": 4.999999873689376e-05}}}, "name": "res2a_branch2c"}, {"inbound_nodes": [[["max_pooling2d_1", 0, 0, {}]]], "class_name": "Conv2D", "config": {"activation": "linear", "bias_regularizer": null, "strides": [1, 1], "data_format": "channels_last", "kernel_size": [1, 1], "dilation_rate": [1, 1], "kernel_constraint": null, "padding": "valid", "trainable": true, "bias_constraint": null, "activity_regularizer": null, "filters": 256, "use_bias": true, "name": "res2a_branch1", "kernel_initializer": {"class_name": "VarianceScaling", "config": {"seed": null, "distribution": "uniform", "mode": "fan_avg", "scale": 1.0}}, "bias_initializer": {"class_name": "Zeros", "config": {}}, "kernel_regularizer": {"class_name": "L1L2", "config": {"l1": 0.0, "l2": 4.999999873689376e-05}}}, "name": "res2a_branch1"}, {"inbound_nodes": [[["res2a_branch2c", 0, 0, {}]]], "class_name": "BatchNormalization", "config": {"epsilon": 0.001, "momentum": 0.95, "moving_variance_initializer": {"class_name": "Ones", "config": {}}, "scale": true, "gamma_initializer": {"class_name": "Ones", "config": {}}, "axis": 3, "trainable": true, "gamma_regularizer": null, "moving_mean_initializer": {"class_name": "Zeros", "config": {}}, "beta_initializer": {"class_name": "Zeros", "config": {}}, "name": "bn2a_branch2c", "beta_constraint": null, "center": true, "gamma_constraint": null, "beta_regularizer": null}, "name": "bn2a_branch2c"}, {"inbound_nodes": [[["res2a_branch1", 0, 0, {}]]], "class_name": "BatchNormalization", "config": {"epsilon": 0.001, "momentum": 0.95, "moving_variance_initializer": {"class_name": "Ones", "config": {}}, "scale": true, "gamma_initializer": {"class_name": "Ones", "config": {}}, "axis": 3, "trainable": true, "gamma_regularizer": null, "moving_mean_initializer": {"class_name": "Zeros", "config": {}}, "beta_initializer": {"class_name": "Zeros", "config": {}}, "name": "bn2a_branch1", "beta_constraint": null, "center": true, "gamma_constraint": null, "beta_regularizer": null}, "name": "bn2a_branch1"}, {"inbound_nodes": [[["bn2a_branch2c", 0, 0, {}], ["bn2a_branch1", 0, 0, {}]]], "class_name": "Add", "config": {"trainable": true, "name": "add_1"}, "name": "add_1"}, {"inbound_nodes": [[["add_1", 0, 0, {}]]], "class_name": "Activation", "config": {"activation": "relu", "trainable": true, "name": "activation_4"}, "name": "activation_4"}, {"inbound_nodes": [[["activation_4", 0, 0, {}]]], "class_name": "Conv2D", "config": {"activation": "linear", "bias_regularizer": null, "strides": [1, 1], "data_format": "channels_last", "kernel_size": [1, 1], "dilation_rate": [1, 1], "kernel_constraint": null, "padding": "valid", "trainable": true, "bias_constraint": null, "activity_regularizer": null, "filters": 64, "use_bias": true, "name": "res2b_branch2a", "kernel_initializer": {"class_name": "VarianceScaling", "config": {"seed": null, "distribution": "uniform", "mode": "fan_avg", "scale": 1.0}}, "bias_initializer": {"class_name": "Zeros", "config": {}}, "kernel_regularizer": {"class_name": "L1L2", "config": {"l1": 0.0, "l2": 4.999999873689376e-05}}}, "name": "res2b_branch2a"}, {"inbound_nodes": [[["res2b_branch2a", 0, 0, {}]]], "class_name": "BatchNormalization", "config": {"epsilon": 0.001, "momentum": 0.95, "moving_variance_initializer": {"class_name": "Ones", "config": {}}, "scale": true, "gamma_initializer": {"class_name": "Ones", "config": {}}, "axis": 3, "trainable": true, "gamma_regularizer": null, "moving_mean_initializer": {"class_name": "Zeros", "config": {}}, "beta_initializer": {"class_name": "Zeros", "config": {}}, "name": "bn2b_branch2a", "beta_constraint": null, "center": true, "gamma_constraint": null, "beta_regularizer": null}, "name": "bn2b_branch2a"}, {"inbound_nodes": [[["bn2b_branch2a", 0, 0, {}]]], "class_name": "Activation", "config": {"activation": "relu", "trainable": true, "name": "activation_5"}, "name": "activation_5"}, {"inbound_nodes": [[["activation_5", 0, 0, {}]]], "class_name": "Conv2D", "config": {"activation": "linear", "bias_regularizer": null, "strides": [1, 1], "data_format": "channels_last", "kernel_size": [3, 3], "dilation_rate": [1, 1], "kernel_constraint": null, "padding": "same", "trainable": true, "bias_constraint": null, "activity_regularizer": null, "filters": 64, "use_bias": true, "name": "res2b_branch2b", "kernel_initializer": {"class_name": "VarianceScaling", "config": {"seed": null, "distribution": "uniform", "mode": "fan_avg", "scale": 1.0}}, "bias_initializer": {"class_name": "Zeros", "config": {}}, "kernel_regularizer": {"class_name": "L1L2", "config": {"l1": 0.0, "l2": 4.999999873689376e-05}}}, "name": "res2b_branch2b"}, {"inbound_nodes": [[["res2b_branch2b", 0, 0, {}]]], "class_name": "BatchNormalization", "config": {"epsilon": 0.001, "momentum": 0.95, "moving_variance_initializer": {"class_name": "Ones", "config": {}}, "scale": true, "gamma_initializer": {"class_name": "Ones", "config": {}}, "axis": 3, "trainable": true, "gamma_regularizer": null, "moving_mean_initializer": {"class_name": "Zeros", "config": {}}, "beta_initializer": {"class_name": "Zeros", "config": {}}, "name": "bn2b_branch2b", "beta_constraint": null, "center": true, "gamma_constraint": null, "beta_regularizer": null}, "name": "bn2b_branch2b"}, {"inbound_nodes": [[["bn2b_branch2b", 0, 0, {}]]], "class_name": "Activation", "config": {"activation": "relu", "trainable": true, "name": "activation_6"}, "name": "activation_6"}, {"inbound_nodes": [[["activation_6", 0, 0, {}]]], "class_name": "Conv2D", "config": {"activation": "linear", "bias_regularizer": null, "strides": [1, 1], "data_format": "channels_last", "kernel_size": [1, 1], "dilation_rate": [1, 1], "kernel_constraint": null, "padding": "valid", "trainable": true, "bias_constraint": null, "activity_regularizer": null, "filters": 256, "use_bias": true, "name": "res2b_branch2c", "kernel_initializer": {"class_name": "VarianceScaling", "config": {"seed": null, "distribution": "uniform", "mode": "fan_avg", "scale": 1.0}}, "bias_initializer": {"class_name": "Zeros", "config": {}}, "kernel_regularizer": {"class_name": "L1L2", "config": {"l1": 0.0, "l2": 4.999999873689376e-05}}}, "name": "res2b_branch2c"}, {"inbound_nodes": [[["res2b_branch2c", 0, 0, {}]]], "class_name": "BatchNormalization", "config": {"epsilon": 0.001, "momentum": 0.95, "moving_variance_initializer": {"class_name": "Ones", "config": {}}, "scale": true, "gamma_initializer": {"class_name": "Ones", "config": {}}, "axis": 3, "trainable": true, "gamma_regularizer": null, "moving_mean_initializer": {"class_name": "Zeros", "config": {}}, "beta_initializer": {"class_name": "Zeros", "config": {}}, "name": "bn2b_branch2c", "beta_constraint": null, "center": true, "gamma_constraint": null, "beta_regularizer": null}, "name": "bn2b_branch2c"}, {"inbound_nodes": [[["bn2b_branch2c", 0, 0, {}], ["activation_4", 0, 0, {}]]], "class_name": "Add", "config": {"trainable": true, "name": "add_2"}, "name": "add_2"}, {"inbound_nodes": [[["add_2", 0, 0, {}]]], "class_name": "Activation", "config": {"activation": "relu", "trainable": true, "name": "activation_7"}, "name": "activation_7"}, {"inbound_nodes": [[["activation_7", 0, 0, {}]]], "class_name": "Conv2D", "config": {"activation": "linear", "bias_regularizer": null, "strides": [1, 1], "data_format": "channels_last", "kernel_size": [1, 1], "dilation_rate": [1, 1], "kernel_constraint": null, "padding": "valid", "trainable": true, "bias_constraint": null, "activity_regularizer": null, "filters": 64, "use_bias": true, "name": "res2c_branch2a", "kernel_initializer": {"class_name": "VarianceScaling", "config": {"seed": null, "distribution": "uniform", "mode": "fan_avg", "scale": 1.0}}, "bias_initializer": {"class_name": "Zeros", "config": {}}, "kernel_regularizer": {"class_name": "L1L2", "config": {"l1": 0.0, "l2": 4.999999873689376e-05}}}, "name": "res2c_branch2a"}, {"inbound_nodes": [[["res2c_branch2a", 0, 0, {}]]], "class_name": "BatchNormalization", "config": {"epsilon": 0.001, "momentum": 0.95, "moving_variance_initializer": {"class_name": "Ones", "config": {}}, "scale": true, "gamma_initializer": {"class_name": "Ones", "config": {}}, "axis": 3, "trainable": true, "gamma_regularizer": null, "moving_mean_initializer": {"class_name": "Zeros", "config": {}}, "beta_initializer": {"class_name": "Zeros", "config": {}}, "name": "bn2c_branch2a", "beta_constraint": null, "center": true, "gamma_constraint": null, "beta_regularizer": null}, "name": "bn2c_branch2a"}, {"inbound_nodes": [[["bn2c_branch2a", 0, 0, {}]]], "class_name": "Activation", "config": {"activation": "relu", "trainable": true, "name": "activation_8"}, "name": "activation_8"}, {"inbound_nodes": [[["activation_8", 0, 0, {}]]], "class_name": "Conv2D", "config": {"activation": "linear", "bias_regularizer": null, "strides": [1, 1], "data_format": "channels_last", "kernel_size": [3, 3], "dilation_rate": [1, 1], "kernel_constraint": null, "padding": "same", "trainable": true, "bias_constraint": null, "activity_regularizer": null, "filters": 64, "use_bias": true, "name": "res2c_branch2b", "kernel_initializer": {"class_name": "VarianceScaling", "config": {"seed": null, "distribution": "uniform", "mode": "fan_avg", "scale": 1.0}}, "bias_initializer": {"class_name": "Zeros", "config": {}}, "kernel_regularizer": {"class_name": "L1L2", "config": {"l1": 0.0, "l2": 4.999999873689376e-05}}}, "name": "res2c_branch2b"}, {"inbound_nodes": [[["res2c_branch2b", 0, 0, {}]]], "class_name": "BatchNormalization", "config": {"epsilon": 0.001, "momentum": 0.95, "moving_variance_initializer": {"class_name": "Ones", "config": {}}, "scale": true, "gamma_initializer": {"class_name": "Ones", "config": {}}, "axis": 3, "trainable": true, "gamma_regularizer": null, "moving_mean_initializer": {"class_name": "Zeros", "config": {}}, "beta_initializer": {"class_name": "Zeros", "config": {}}, "name": "bn2c_branch2b", "beta_constraint": null, "center": true, "gamma_constraint": null, "beta_regularizer": null}, "name": "bn2c_branch2b"}, {"inbound_nodes": [[["bn2c_branch2b", 0, 0, {}]]], "class_name": "Activation", "config": {"activation": "relu", "trainable": true, "name": "activation_9"}, "name": "activation_9"}, {"inbound_nodes": [[["activation_9", 0, 0, {}]]], "class_name": "Conv2D", "config": {"activation": "linear", "bias_regularizer": null, "strides": [1, 1], "data_format": "channels_last", "kernel_size": [1, 1], "dilation_rate": [1, 1], "kernel_constraint": null, "padding": "valid", "trainable": true, "bias_constraint": null, "activity_regularizer": null, "filters": 256, "use_bias": true, "name": "res2c_branch2c", "kernel_initializer": {"class_name": "VarianceScaling", "config": {"seed": null, "distribution": "uniform", "mode": "fan_avg", "scale": 1.0}}, "bias_initializer": {"class_name": "Zeros", "config": {}}, "kernel_regularizer": {"class_name": "L1L2", "config": {"l1": 0.0, "l2": 4.999999873689376e-05}}}, "name": "res2c_branch2c"}, {"inbound_nodes": [[["res2c_branch2c", 0, 0, {}]]], "class_name": "BatchNormalization", "config": {"epsilon": 0.001, "momentum": 0.95, "moving_variance_initializer": {"class_name": "Ones", "config": {}}, "scale": true, "gamma_initializer": {"class_name": "Ones", "config": {}}, "axis": 3, "trainable": true, "gamma_regularizer": null, "moving_mean_initializer": {"class_name": "Zeros", "config": {}}, "beta_initializer": {"class_name": "Zeros", "config": {}}, "name": "bn2c_branch2c", "beta_constraint": null, "center": true, "gamma_constraint": null, "beta_regularizer": null}, "name": "bn2c_branch2c"}, {"inbound_nodes": [[["bn2c_branch2c", 0, 0, {}], ["activation_7", 0, 0, {}]]], "class_name": "Add", "config": {"trainable": true, "name": "add_3"}, "name": "add_3"}, {"inbound_nodes": [[["add_3", 0, 0, {}]]], "class_name": "Activation", "config": {"activation": "relu", "trainable": true, "name": "activation_10"}, "name": "activation_10"}, {"inbound_nodes": [[["activation_10", 0, 0, {}]]], "class_name": "Conv2D", "config": {"activation": "linear", "bias_regularizer": null, "strides": [2, 2], "data_format": "channels_last", "kernel_size": [1, 1], "dilation_rate": [1, 1], "kernel_constraint": null, "padding": "valid", "trainable": true, "bias_constraint": null, "activity_regularizer": null, "filters": 128, "use_bias": true, "name": "res3a_branch2a", "kernel_initializer": {"class_name": "VarianceScaling", "config": {"seed": null, "distribution": "uniform", "mode": "fan_avg", "scale": 1.0}}, "bias_initializer": {"class_name": "Zeros", "config": {}}, "kernel_regularizer": {"class_name": "L1L2", "config": {"l1": 0.0, "l2": 4.999999873689376e-05}}}, "name": "res3a_branch2a"}, {"inbound_nodes": [[["res3a_branch2a", 0, 0, {}]]], "class_name": "BatchNormalization", "config": {"epsilon": 0.001, "momentum": 0.95, "moving_variance_initializer": {"class_name": "Ones", "config": {}}, "scale": true, "gamma_initializer": {"class_name": "Ones", "config": {}}, "axis": 3, "trainable": true, "gamma_regularizer": null, "moving_mean_initializer": {"class_name": "Zeros", "config": {}}, "beta_initializer": {"class_name": "Zeros", "config": {}}, "name": "bn3a_branch2a", "beta_constraint": null, "center": true, "gamma_constraint": null, "beta_regularizer": null}, "name": "bn3a_branch2a"}, {"inbound_nodes": [[["bn3a_branch2a", 0, 0, {}]]], "class_name": "Activation", "config": {"activation": "relu", "trainable": true, "name": "activation_11"}, "name": "activation_11"}, {"inbound_nodes": [[["activation_11", 0, 0, {}]]], "class_name": "Conv2D", "config": {"activation": "linear", "bias_regularizer": null, "strides": [1, 1], "data_format": "channels_last", "kernel_size": [3, 3], "dilation_rate": [1, 1], "kernel_constraint": null, "padding": "same", "trainable": true, "bias_constraint": null, "activity_regularizer": null, "filters": 128, "use_bias": true, "name": "res3a_branch2b", "kernel_initializer": {"class_name": "VarianceScaling", "config": {"seed": null, "distribution": "uniform", "mode": "fan_avg", "scale": 1.0}}, "bias_initializer": {"class_name": "Zeros", "config": {}}, "kernel_regularizer": {"class_name": "L1L2", "config": {"l1": 0.0, "l2": 4.999999873689376e-05}}}, "name": "res3a_branch2b"}, {"inbound_nodes": [[["res3a_branch2b", 0, 0, {}]]], "class_name": "BatchNormalization", "config": {"epsilon": 0.001, "momentum": 0.95, "moving_variance_initializer": {"class_name": "Ones", "config": {}}, "scale": true, "gamma_initializer": {"class_name": "Ones", "config": {}}, "axis": 3, "trainable": true, "gamma_regularizer": null, "moving_mean_initializer": {"class_name": "Zeros", "config": {}}, "beta_initializer": {"class_name": "Zeros", "config": {}}, "name": "bn3a_branch2b", "beta_constraint": null, "center": true, "gamma_constraint": null, "beta_regularizer": null}, "name": "bn3a_branch2b"}, {"inbound_nodes": [[["bn3a_branch2b", 0, 0, {}]]], "class_name": "Activation", "config": {"activation": "relu", "trainable": true, "name": "activation_12"}, "name": "activation_12"}, {"inbound_nodes": [[["activation_12", 0, 0, {}]]], "class_name": "Conv2D", "config": {"activation": "linear", "bias_regularizer": null, "strides": [1, 1], "data_format": "channels_last", "kernel_size": [1, 1], "dilation_rate": [1, 1], "kernel_constraint": null, "padding": "valid", "trainable": true, "bias_constraint": null, "activity_regularizer": null, "filters": 512, "use_bias": true, "name": "res3a_branch2c", "kernel_initializer": {"class_name": "VarianceScaling", "config": {"seed": null, "distribution": "uniform", "mode": "fan_avg", "scale": 1.0}}, "bias_initializer": {"class_name": "Zeros", "config": {}}, "kernel_regularizer": {"class_name": "L1L2", "config": {"l1": 0.0, "l2": 4.999999873689376e-05}}}, "name": "res3a_branch2c"}, {"inbound_nodes": [[["activation_10", 0, 0, {}]]], "class_name": "Conv2D", "config": {"activation": "linear", "bias_regularizer": null, "strides": [2, 2], "data_format": "channels_last", "kernel_size": [1, 1], "dilation_rate": [1, 1], "kernel_constraint": null, "padding": "valid", "trainable": true, "bias_constraint": null, "activity_regularizer": null, "filters": 512, "use_bias": true, "name": "res3a_branch1", "kernel_initializer": {"class_name": "VarianceScaling", "config": {"seed": null, "distribution": "uniform", "mode": "fan_avg", "scale": 1.0}}, "bias_initializer": {"class_name": "Zeros", "config": {}}, "kernel_regularizer": {"class_name": "L1L2", "config": {"l1": 0.0, "l2": 4.999999873689376e-05}}}, "name": "res3a_branch1"}, {"inbound_nodes": [[["res3a_branch2c", 0, 0, {}]]], "class_name": "BatchNormalization", "config": {"epsilon": 0.001, "momentum": 0.95, "moving_variance_initializer": {"class_name": "Ones", "config": {}}, "scale": true, "gamma_initializer": {"class_name": "Ones", "config": {}}, "axis": 3, "trainable": true, "gamma_regularizer": null, "moving_mean_initializer": {"class_name": "Zeros", "config": {}}, "beta_initializer": {"class_name": "Zeros", "config": {}}, "name": "bn3a_branch2c", "beta_constraint": null, "center": true, "gamma_constraint": null, "beta_regularizer": null}, "name": "bn3a_branch2c"}, {"inbound_nodes": [[["res3a_branch1", 0, 0, {}]]], "class_name": "BatchNormalization", "config": {"epsilon": 0.001, "momentum": 0.95, "moving_variance_initializer": {"class_name": "Ones", "config": {}}, "scale": true, "gamma_initializer": {"class_name": "Ones", "config": {}}, "axis": 3, "trainable": true, "gamma_regularizer": null, "moving_mean_initializer": {"class_name": "Zeros", "config": {}}, "beta_initializer": {"class_name": "Zeros", "config": {}}, "name": "bn3a_branch1", "beta_constraint": null, "center": true, "gamma_constraint": null, "beta_regularizer": null}, "name": "bn3a_branch1"}, {"inbound_nodes": [[["bn3a_branch2c", 0, 0, {}], ["bn3a_branch1", 0, 0, {}]]], "class_name": "Add", "config": {"trainable": true, "name": "add_4"}, "name": "add_4"}, {"inbound_nodes": [[["add_4", 0, 0, {}]]], "class_name": "Activation", "config": {"activation": "relu", "trainable": true, "name": "activation_13"}, "name": "activation_13"}, {"inbound_nodes": [[["activation_13", 0, 0, {}]]], "class_name": "Conv2D", "config": {"activation": "linear", "bias_regularizer": null, "strides": [1, 1], "data_format": "channels_last", "kernel_size": [1, 1], "dilation_rate": [1, 1], "kernel_constraint": null, "padding": "valid", "trainable": true, "bias_constraint": null, "activity_regularizer": null, "filters": 128, "use_bias": true, "name": "res3b_branch2a", "kernel_initializer": {"class_name": "VarianceScaling", "config": {"seed": null, "distribution": "uniform", "mode": "fan_avg", "scale": 1.0}}, "bias_initializer": {"class_name": "Zeros", "config": {}}, "kernel_regularizer": {"class_name": "L1L2", "config": {"l1": 0.0, "l2": 4.999999873689376e-05}}}, "name": "res3b_branch2a"}, {"inbound_nodes": [[["res3b_branch2a", 0, 0, {}]]], "class_name": "BatchNormalization", "config": {"epsilon": 0.001, "momentum": 0.95, "moving_variance_initializer": {"class_name": "Ones", "config": {}}, "scale": true, "gamma_initializer": {"class_name": "Ones", "config": {}}, "axis": 3, "trainable": true, "gamma_regularizer": null, "moving_mean_initializer": {"class_name": "Zeros", "config": {}}, "beta_initializer": {"class_name": "Zeros", "config": {}}, "name": "bn3b_branch2a", "beta_constraint": null, "center": true, "gamma_constraint": null, "beta_regularizer": null}, "name": "bn3b_branch2a"}, {"inbound_nodes": [[["bn3b_branch2a", 0, 0, {}]]], "class_name": "Activation", "config": {"activation": "relu", "trainable": true, "name": "activation_14"}, "name": "activation_14"}, {"inbound_nodes": [[["activation_14", 0, 0, {}]]], "class_name": "Conv2D", "config": {"activation": "linear", "bias_regularizer": null, "strides": [1, 1], "data_format": "channels_last", "kernel_size": [3, 3], "dilation_rate": [1, 1], "kernel_constraint": null, "padding": "same", "trainable": true, "bias_constraint": null, "activity_regularizer": null, "filters": 128, "use_bias": true, "name": "res3b_branch2b", "kernel_initializer": {"class_name": "VarianceScaling", "config": {"seed": null, "distribution": "uniform", "mode": "fan_avg", "scale": 1.0}}, "bias_initializer": {"class_name": "Zeros", "config": {}}, "kernel_regularizer": {"class_name": "L1L2", "config": {"l1": 0.0, "l2": 4.999999873689376e-05}}}, "name": "res3b_branch2b"}, {"inbound_nodes": [[["res3b_branch2b", 0, 0, {}]]], "class_name": "BatchNormalization", "config": {"epsilon": 0.001, "momentum": 0.95, "moving_variance_initializer": {"class_name": "Ones", "config": {}}, "scale": true, "gamma_initializer": {"class_name": "Ones", "config": {}}, "axis": 3, "trainable": true, "gamma_regularizer": null, "moving_mean_initializer": {"class_name": "Zeros", "config": {}}, "beta_initializer": {"class_name": "Zeros", "config": {}}, "name": "bn3b_branch2b", "beta_constraint": null, "center": true, "gamma_constraint": null, "beta_regularizer": null}, "name": "bn3b_branch2b"}, {"inbound_nodes": [[["bn3b_branch2b", 0, 0, {}]]], "class_name": "Activation", "config": {"activation": "relu", "trainable": true, "name": "activation_15"}, "name": "activation_15"}, {"inbound_nodes": [[["activation_15", 0, 0, {}]]], "class_name": "Conv2D", "config": {"activation": "linear", "bias_regularizer": null, "strides": [1, 1], "data_format": "channels_last", "kernel_size": [1, 1], "dilation_rate": [1, 1], "kernel_constraint": null, "padding": "valid", "trainable": true, "bias_constraint": null, "activity_regularizer": null, "filters": 512, "use_bias": true, "name": "res3b_branch2c", "kernel_initializer": {"class_name": "VarianceScaling", "config": {"seed": null, "distribution": "uniform", "mode": "fan_avg", "scale": 1.0}}, "bias_initializer": {"class_name": "Zeros", "config": {}}, "kernel_regularizer": {"class_name": "L1L2", "config": {"l1": 0.0, "l2": 4.999999873689376e-05}}}, "name": "res3b_branch2c"}, {"inbound_nodes": [[["res3b_branch2c", 0, 0, {}]]], "class_name": "BatchNormalization", "config": {"epsilon": 0.001, "momentum": 0.95, "moving_variance_initializer": {"class_name": "Ones", "config": {}}, "scale": true, "gamma_initializer": {"class_name": "Ones", "config": {}}, "axis": 3, "trainable": true, "gamma_regularizer": null, "moving_mean_initializer": {"class_name": "Zeros", "config": {}}, "beta_initializer": {"class_name": "Zeros", "config": {}}, "name": "bn3b_branch2c", "beta_constraint": null, "center": true, "gamma_constraint": null, "beta_regularizer": null}, "name": "bn3b_branch2c"}, {"inbound_nodes": [[["bn3b_branch2c", 0, 0, {}], ["activation_13", 0, 0, {}]]], "class_name": "Add", "config": {"trainable": true, "name": "add_5"}, "name": "add_5"}, {"inbound_nodes": [[["add_5", 0, 0, {}]]], "class_name": "Activation", "config": {"activation": "relu", "trainable": true, "name": "activation_16"}, "name": "activation_16"}, {"inbound_nodes": [[["activation_16", 0, 0, {}]]], "class_name": "Conv2D", "config": {"activation": "linear", "bias_regularizer": null, "strides": [1, 1], "data_format": "channels_last", "kernel_size": [1, 1], "dilation_rate": [1, 1], "kernel_constraint": null, "padding": "valid", "trainable": true, "bias_constraint": null, "activity_regularizer": null, "filters": 128, "use_bias": true, "name": "res3c_branch2a", "kernel_initializer": {"class_name": "VarianceScaling", "config": {"seed": null, "distribution": "uniform", "mode": "fan_avg", "scale": 1.0}}, "bias_initializer": {"class_name": "Zeros", "config": {}}, "kernel_regularizer": {"class_name": "L1L2", "config": {"l1": 0.0, "l2": 4.999999873689376e-05}}}, "name": "res3c_branch2a"}, {"inbound_nodes": [[["res3c_branch2a", 0, 0, {}]]], "class_name": "BatchNormalization", "config": {"epsilon": 0.001, "momentum": 0.95, "moving_variance_initializer": {"class_name": "Ones", "config": {}}, "scale": true, "gamma_initializer": {"class_name": "Ones", "config": {}}, "axis": 3, "trainable": true, "gamma_regularizer": null, "moving_mean_initializer": {"class_name": "Zeros", "config": {}}, "beta_initializer": {"class_name": "Zeros", "config": {}}, "name": "bn3c_branch2a", "beta_constraint": null, "center": true, "gamma_constraint": null, "beta_regularizer": null}, "name": "bn3c_branch2a"}, {"inbound_nodes": [[["bn3c_branch2a", 0, 0, {}]]], "class_name": "Activation", "config": {"activation": "relu", "trainable": true, "name": "activation_17"}, "name": "activation_17"}, {"inbound_nodes": [[["activation_17", 0, 0, {}]]], "class_name": "Conv2D", "config": {"activation": "linear", "bias_regularizer": null, "strides": [1, 1], "data_format": "channels_last", "kernel_size": [3, 3], "dilation_rate": [1, 1], "kernel_constraint": null, "padding": "same", "trainable": true, "bias_constraint": null, "activity_regularizer": null, "filters": 128, "use_bias": true, "name": "res3c_branch2b", "kernel_initializer": {"class_name": "VarianceScaling", "config": {"seed": null, "distribution": "uniform", "mode": "fan_avg", "scale": 1.0}}, "bias_initializer": {"class_name": "Zeros", "config": {}}, "kernel_regularizer": {"class_name": "L1L2", "config": {"l1": 0.0, "l2": 4.999999873689376e-05}}}, "name": "res3c_branch2b"}, {"inbound_nodes": [[["res3c_branch2b", 0, 0, {}]]], "class_name": "BatchNormalization", "config": {"epsilon": 0.001, "momentum": 0.95, "moving_variance_initializer": {"class_name": "Ones", "config": {}}, "scale": true, "gamma_initializer": {"class_name": "Ones", "config": {}}, "axis": 3, "trainable": true, "gamma_regularizer": null, "moving_mean_initializer": {"class_name": "Zeros", "config": {}}, "beta_initializer": {"class_name": "Zeros", "config": {}}, "name": "bn3c_branch2b", "beta_constraint": null, "center": true, "gamma_constraint": null, "beta_regularizer": null}, "name": "bn3c_branch2b"}, {"inbound_nodes": [[["bn3c_branch2b", 0, 0, {}]]], "class_name": "Activation", "config": {"activation": "relu", "trainable": true, "name": "activation_18"}, "name": "activation_18"}, {"inbound_nodes": [[["activation_18", 0, 0, {}]]], "class_name": "Conv2D", "config": {"activation": "linear", "bias_regularizer": null, "strides": [1, 1], "data_format": "channels_last", "kernel_size": [1, 1], "dilation_rate": [1, 1], "kernel_constraint": null, "padding": "valid", "trainable": true, "bias_constraint": null, "activity_regularizer": null, "filters": 512, "use_bias": true, "name": "res3c_branch2c", "kernel_initializer": {"class_name": "VarianceScaling", "config": {"seed": null, "distribution": "uniform", "mode": "fan_avg", "scale": 1.0}}, "bias_initializer": {"class_name": "Zeros", "config": {}}, "kernel_regularizer": {"class_name": "L1L2", "config": {"l1": 0.0, "l2": 4.999999873689376e-05}}}, "name": "res3c_branch2c"}, {"inbound_nodes": [[["res3c_branch2c", 0, 0, {}]]], "class_name": "BatchNormalization", "config": {"epsilon": 0.001, "momentum": 0.95, "moving_variance_initializer": {"class_name": "Ones", "config": {}}, "scale": true, "gamma_initializer": {"class_name": "Ones", "config": {}}, "axis": 3, "trainable": true, "gamma_regularizer": null, "moving_mean_initializer": {"class_name": "Zeros", "config": {}}, "beta_initializer": {"class_name": "Zeros", "config": {}}, "name": "bn3c_branch2c", "beta_constraint": null, "center": true, "gamma_constraint": null, "beta_regularizer": null}, "name": "bn3c_branch2c"}, {"inbound_nodes": [[["bn3c_branch2c", 0, 0, {}], ["activation_16", 0, 0, {}]]], "class_name": "Add", "config": {"trainable": true, "name": "add_6"}, "name": "add_6"}, {"inbound_nodes": [[["add_6", 0, 0, {}]]], "class_name": "Activation", "config": {"activation": "relu", "trainable": true, "name": "activation_19"}, "name": "activation_19"}, {"inbound_nodes": [[["activation_19", 0, 0, {}]]], "class_name": "Conv2D", "config": {"activation": "linear", "bias_regularizer": null, "strides": [1, 1], "data_format": "channels_last", "kernel_size": [1, 1], "dilation_rate": [1, 1], "kernel_constraint": null, "padding": "valid", "trainable": true, "bias_constraint": null, "activity_regularizer": null, "filters": 128, "use_bias": true, "name": "res3d_branch2a", "kernel_initializer": {"class_name": "VarianceScaling", "config": {"seed": null, "distribution": "uniform", "mode": "fan_avg", "scale": 1.0}}, "bias_initializer": {"class_name": "Zeros", "config": {}}, "kernel_regularizer": {"class_name": "L1L2", "config": {"l1": 0.0, "l2": 4.999999873689376e-05}}}, "name": "res3d_branch2a"}, {"inbound_nodes": [[["res3d_branch2a", 0, 0, {}]]], "class_name": "BatchNormalization", "config": {"epsilon": 0.001, "momentum": 0.95, "moving_variance_initializer": {"class_name": "Ones", "config": {}}, "scale": true, "gamma_initializer": {"class_name": "Ones", "config": {}}, "axis": 3, "trainable": true, "gamma_regularizer": null, "moving_mean_initializer": {"class_name": "Zeros", "config": {}}, "beta_initializer": {"class_name": "Zeros", "config": {}}, "name": "bn3d_branch2a", "beta_constraint": null, "center": true, "gamma_constraint": null, "beta_regularizer": null}, "name": "bn3d_branch2a"}, {"inbound_nodes": [[["bn3d_branch2a", 0, 0, {}]]], "class_name": "Activation", "config": {"activation": "relu", "trainable": true, "name": "activation_20"}, "name": "activation_20"}, {"inbound_nodes": [[["activation_20", 0, 0, {}]]], "class_name": "Conv2D", "config": {"activation": "linear", "bias_regularizer": null, "strides": [1, 1], "data_format": "channels_last", "kernel_size": [3, 3], "dilation_rate": [1, 1], "kernel_constraint": null, "padding": "same", "trainable": true, "bias_constraint": null, "activity_regularizer": null, "filters": 128, "use_bias": true, "name": "res3d_branch2b", "kernel_initializer": {"class_name": "VarianceScaling", "config": {"seed": null, "distribution": "uniform", "mode": "fan_avg", "scale": 1.0}}, "bias_initializer": {"class_name": "Zeros", "config": {}}, "kernel_regularizer": {"class_name": "L1L2", "config": {"l1": 0.0, "l2": 4.999999873689376e-05}}}, "name": "res3d_branch2b"}, {"inbound_nodes": [[["res3d_branch2b", 0, 0, {}]]], "class_name": "BatchNormalization", "config": {"epsilon": 0.001, "momentum": 0.95, "moving_variance_initializer": {"class_name": "Ones", "config": {}}, "scale": true, "gamma_initializer": {"class_name": "Ones", "config": {}}, "axis": 3, "trainable": true, "gamma_regularizer": null, "moving_mean_initializer": {"class_name": "Zeros", "config": {}}, "beta_initializer": {"class_name": "Zeros", "config": {}}, "name": "bn3d_branch2b", "beta_constraint": null, "center": true, "gamma_constraint": null, "beta_regularizer": null}, "name": "bn3d_branch2b"}, {"inbound_nodes": [[["bn3d_branch2b", 0, 0, {}]]], "class_name": "Activation", "config": {"activation": "relu", "trainable": true, "name": "activation_21"}, "name": "activation_21"}, {"inbound_nodes": [[["activation_21", 0, 0, {}]]], "class_name": "Conv2D", "config": {"activation": "linear", "bias_regularizer": null, "strides": [1, 1], "data_format": "channels_last", "kernel_size": [1, 1], "dilation_rate": [1, 1], "kernel_constraint": null, "padding": "valid", "trainable": true, "bias_constraint": null, "activity_regularizer": null, "filters": 512, "use_bias": true, "name": "res3d_branch2c", "kernel_initializer": {"class_name": "VarianceScaling", "config": {"seed": null, "distribution": "uniform", "mode": "fan_avg", "scale": 1.0}}, "bias_initializer": {"class_name": "Zeros", "config": {}}, "kernel_regularizer": {"class_name": "L1L2", "config": {"l1": 0.0, "l2": 4.999999873689376e-05}}}, "name": "res3d_branch2c"}, {"inbound_nodes": [[["res3d_branch2c", 0, 0, {}]]], "class_name": "BatchNormalization", "config": {"epsilon": 0.001, "momentum": 0.95, "moving_variance_initializer": {"class_name": "Ones", "config": {}}, "scale": true, "gamma_initializer": {"class_name": "Ones", "config": {}}, "axis": 3, "trainable": true, "gamma_regularizer": null, "moving_mean_initializer": {"class_name": "Zeros", "config": {}}, "beta_initializer": {"class_name": "Zeros", "config": {}}, "name": "bn3d_branch2c", "beta_constraint": null, "center": true, "gamma_constraint": null, "beta_regularizer": null}, "name": "bn3d_branch2c"}, {"inbound_nodes": [[["bn3d_branch2c", 0, 0, {}], ["activation_19", 0, 0, {}]]], "class_name": "Add", "config": {"trainable": true, "name": "add_7"}, "name": "add_7"}, {"inbound_nodes": [[["add_7", 0, 0, {}]]], "class_name": "Activation", "config": {"activation": "relu", "trainable": true, "name": "activation_22"}, "name": "activation_22"}, {"inbound_nodes": [[["activation_22", 0, 0, {}]]], "class_name": "Conv2D", "config": {"activation": "linear", "bias_regularizer": null, "strides": [2, 2], "data_format": "channels_last", "kernel_size": [1, 1], "dilation_rate": [1, 1], "kernel_constraint": null, "padding": "valid", "trainable": true, "bias_constraint": null, "activity_regularizer": null, "filters": 256, "use_bias": true, "name": "res4a_branch2a", "kernel_initializer": {"class_name": "VarianceScaling", "config": {"seed": null, "distribution": "uniform", "mode": "fan_avg", "scale": 1.0}}, "bias_initializer": {"class_name": "Zeros", "config": {}}, "kernel_regularizer": {"class_name": "L1L2", "config": {"l1": 0.0, "l2": 4.999999873689376e-05}}}, "name": "res4a_branch2a"}, {"inbound_nodes": [[["res4a_branch2a", 0, 0, {}]]], "class_name": "BatchNormalization", "config": {"epsilon": 0.001, "momentum": 0.95, "moving_variance_initializer": {"class_name": "Ones", "config": {}}, "scale": true, "gamma_initializer": {"class_name": "Ones", "config": {}}, "axis": 3, "trainable": true, "gamma_regularizer": null, "moving_mean_initializer": {"class_name": "Zeros", "config": {}}, "beta_initializer": {"class_name": "Zeros", "config": {}}, "name": "bn4a_branch2a", "beta_constraint": null, "center": true, "gamma_constraint": null, "beta_regularizer": null}, "name": "bn4a_branch2a"}, {"inbound_nodes": [[["bn4a_branch2a", 0, 0, {}]]], "class_name": "Activation", "config": {"activation": "relu", "trainable": true, "name": "activation_23"}, "name": "activation_23"}, {"inbound_nodes": [[["activation_23", 0, 0, {}]]], "class_name": "Conv2D", "config": {"activation": "linear", "bias_regularizer": null, "strides": [1, 1], "data_format": "channels_last", "kernel_size": [3, 3], "dilation_rate": [1, 1], "kernel_constraint": null, "padding": "same", "trainable": true, "bias_constraint": null, "activity_regularizer": null, "filters": 256, "use_bias": true, "name": "res4a_branch2b", "kernel_initializer": {"class_name": "VarianceScaling", "config": {"seed": null, "distribution": "uniform", "mode": "fan_avg", "scale": 1.0}}, "bias_initializer": {"class_name": "Zeros", "config": {}}, "kernel_regularizer": {"class_name": "L1L2", "config": {"l1": 0.0, "l2": 4.999999873689376e-05}}}, "name": "res4a_branch2b"}, {"inbound_nodes": [[["res4a_branch2b", 0, 0, {}]]], "class_name": "BatchNormalization", "config": {"epsilon": 0.001, "momentum": 0.95, "moving_variance_initializer": {"class_name": "Ones", "config": {}}, "scale": true, "gamma_initializer": {"class_name": "Ones", "config": {}}, "axis": 3, "trainable": true, "gamma_regularizer": null, "moving_mean_initializer": {"class_name": "Zeros", "config": {}}, "beta_initializer": {"class_name": "Zeros", "config": {}}, "name": "bn4a_branch2b", "beta_constraint": null, "center": true, "gamma_constraint": null, "beta_regularizer": null}, "name": "bn4a_branch2b"}, {"inbound_nodes": [[["bn4a_branch2b", 0, 0, {}]]], "class_name": "Activation", "config": {"activation": "relu", "trainable": true, "name": "activation_24"}, "name": "activation_24"}, {"inbound_nodes": [[["activation_24", 0, 0, {}]]], "class_name": "Conv2D", "config": {"activation": "linear", "bias_regularizer": null, "strides": [1, 1], "data_format": "channels_last", "kernel_size": [1, 1], "dilation_rate": [1, 1], "kernel_constraint": null, "padding": "valid", "trainable": true, "bias_constraint": null, "activity_regularizer": null, "filters": 1024, "use_bias": true, "name": "res4a_branch2c", "kernel_initializer": {"class_name": "VarianceScaling", "config": {"seed": null, "distribution": "uniform", "mode": "fan_avg", "scale": 1.0}}, "bias_initializer": {"class_name": "Zeros", "config": {}}, "kernel_regularizer": {"class_name": "L1L2", "config": {"l1": 0.0, "l2": 4.999999873689376e-05}}}, "name": "res4a_branch2c"}, {"inbound_nodes": [[["activation_22", 0, 0, {}]]], "class_name": "Conv2D", "config": {"activation": "linear", "bias_regularizer": null, "strides": [2, 2], "data_format": "channels_last", "kernel_size": [1, 1], "dilation_rate": [1, 1], "kernel_constraint": null, "padding": "valid", "trainable": true, "bias_constraint": null, "activity_regularizer": null, "filters": 1024, "use_bias": true, "name": "res4a_branch1", "kernel_initializer": {"class_name": "VarianceScaling", "config": {"seed": null, "distribution": "uniform", "mode": "fan_avg", "scale": 1.0}}, "bias_initializer": {"class_name": "Zeros", "config": {}}, "kernel_regularizer": {"class_name": "L1L2", "config": {"l1": 0.0, "l2": 4.999999873689376e-05}}}, "name": "res4a_branch1"}, {"inbound_nodes": [[["res4a_branch2c", 0, 0, {}]]], "class_name": "BatchNormalization", "config": {"epsilon": 0.001, "momentum": 0.95, "moving_variance_initializer": {"class_name": "Ones", "config": {}}, "scale": true, "gamma_initializer": {"class_name": "Ones", "config": {}}, "axis": 3, "trainable": true, "gamma_regularizer": null, "moving_mean_initializer": {"class_name": "Zeros", "config": {}}, "beta_initializer": {"class_name": "Zeros", "config": {}}, "name": "bn4a_branch2c", "beta_constraint": null, "center": true, "gamma_constraint": null, "beta_regularizer": null}, "name": "bn4a_branch2c"}, {"inbound_nodes": [[["res4a_branch1", 0, 0, {}]]], "class_name": "BatchNormalization", "config": {"epsilon": 0.001, "momentum": 0.95, "moving_variance_initializer": {"class_name": "Ones", "config": {}}, "scale": true, "gamma_initializer": {"class_name": "Ones", "config": {}}, "axis": 3, "trainable": true, "gamma_regularizer": null, "moving_mean_initializer": {"class_name": "Zeros", "config": {}}, "beta_initializer": {"class_name": "Zeros", "config": {}}, "name": "bn4a_branch1", "beta_constraint": null, "center": true, "gamma_constraint": null, "beta_regularizer": null}, "name": "bn4a_branch1"}, {"inbound_nodes": [[["bn4a_branch2c", 0, 0, {}], ["bn4a_branch1", 0, 0, {}]]], "class_name": "Add", "config": {"trainable": true, "name": "add_8"}, "name": "add_8"}, {"inbound_nodes": [[["add_8", 0, 0, {}]]], "class_name": "Activation", "config": {"activation": "relu", "trainable": true, "name": "activation_25"}, "name": "activation_25"}, {"inbound_nodes": [[["activation_25", 0, 0, {}]]], "class_name": "Conv2D", "config": {"activation": "linear", "bias_regularizer": null, "strides": [1, 1], "data_format": "channels_last", "kernel_size": [1, 1], "dilation_rate": [1, 1], "kernel_constraint": null, "padding": "valid", "trainable": true, "bias_constraint": null, "activity_regularizer": null, "filters": 256, "use_bias": true, "name": "res4b_branch2a", "kernel_initializer": {"class_name": "VarianceScaling", "config": {"seed": null, "distribution": "uniform", "mode": "fan_avg", "scale": 1.0}}, "bias_initializer": {"class_name": "Zeros", "config": {}}, "kernel_regularizer": {"class_name": "L1L2", "config": {"l1": 0.0, "l2": 4.999999873689376e-05}}}, "name": "res4b_branch2a"}, {"inbound_nodes": [[["res4b_branch2a", 0, 0, {}]]], "class_name": "BatchNormalization", "config": {"epsilon": 0.001, "momentum": 0.95, "moving_variance_initializer": {"class_name": "Ones", "config": {}}, "scale": true, "gamma_initializer": {"class_name": "Ones", "config": {}}, "axis": 3, "trainable": true, "gamma_regularizer": null, "moving_mean_initializer": {"class_name": "Zeros", "config": {}}, "beta_initializer": {"class_name": "Zeros", "config": {}}, "name": "bn4b_branch2a", "beta_constraint": null, "center": true, "gamma_constraint": null, "beta_regularizer": null}, "name": "bn4b_branch2a"}, {"inbound_nodes": [[["bn4b_branch2a", 0, 0, {}]]], "class_name": "Activation", "config": {"activation": "relu", "trainable": true, "name": "activation_26"}, "name": "activation_26"}, {"inbound_nodes": [[["activation_26", 0, 0, {}]]], "class_name": "Conv2D", "config": {"activation": "linear", "bias_regularizer": null, "strides": [1, 1], "data_format": "channels_last", "kernel_size": [3, 3], "dilation_rate": [1, 1], "kernel_constraint": null, "padding": "same", "trainable": true, "bias_constraint": null, "activity_regularizer": null, "filters": 256, "use_bias": true, "name": "res4b_branch2b", "kernel_initializer": {"class_name": "VarianceScaling", "config": {"seed": null, "distribution": "uniform", "mode": "fan_avg", "scale": 1.0}}, "bias_initializer": {"class_name": "Zeros", "config": {}}, "kernel_regularizer": {"class_name": "L1L2", "config": {"l1": 0.0, "l2": 4.999999873689376e-05}}}, "name": "res4b_branch2b"}, {"inbound_nodes": [[["res4b_branch2b", 0, 0, {}]]], "class_name": "BatchNormalization", "config": {"epsilon": 0.001, "momentum": 0.95, "moving_variance_initializer": {"class_name": "Ones", "config": {}}, "scale": true, "gamma_initializer": {"class_name": "Ones", "config": {}}, "axis": 3, "trainable": true, "gamma_regularizer": null, "moving_mean_initializer": {"class_name": "Zeros", "config": {}}, "beta_initializer": {"class_name": "Zeros", "config": {}}, "name": "bn4b_branch2b", "beta_constraint": null, "center": true, "gamma_constraint": null, "beta_regularizer": null}, "name": "bn4b_branch2b"}, {"inbound_nodes": [[["bn4b_branch2b", 0, 0, {}]]], "class_name": "Activation", "config": {"activation": "relu", "trainable": true, "name": "activation_27"}, "name": "activation_27"}, {"inbound_nodes": [[["activation_27", 0, 0, {}]]], "class_name": "Conv2D", "config": {"activation": "linear", "bias_regularizer": null, "strides": [1, 1], "data_format": "channels_last", "kernel_size": [1, 1], "dilation_rate": [1, 1], "kernel_constraint": null, "padding": "valid", "trainable": true, "bias_constraint": null, "activity_regularizer": null, "filters": 1024, "use_bias": true, "name": "res4b_branch2c", "kernel_initializer": {"class_name": "VarianceScaling", "config": {"seed": null, "distribution": "uniform", "mode": "fan_avg", "scale": 1.0}}, "bias_initializer": {"class_name": "Zeros", "config": {}}, "kernel_regularizer": {"class_name": "L1L2", "config": {"l1": 0.0, "l2": 4.999999873689376e-05}}}, "name": "res4b_branch2c"}, {"inbound_nodes": [[["res4b_branch2c", 0, 0, {}]]], "class_name": "BatchNormalization", "config": {"epsilon": 0.001, "momentum": 0.95, "moving_variance_initializer": {"class_name": "Ones", "config": {}}, "scale": true, "gamma_initializer": {"class_name": "Ones", "config": {}}, "axis": 3, "trainable": true, "gamma_regularizer": null, "moving_mean_initializer": {"class_name": "Zeros", "config": {}}, "beta_initializer": {"class_name": "Zeros", "config": {}}, "name": "bn4b_branch2c", "beta_constraint": null, "center": true, "gamma_constraint": null, "beta_regularizer": null}, "name": "bn4b_branch2c"}, {"inbound_nodes": [[["bn4b_branch2c", 0, 0, {}], ["activation_25", 0, 0, {}]]], "class_name": "Add", "config": {"trainable": true, "name": "add_9"}, "name": "add_9"}, {"inbound_nodes": [[["add_9", 0, 0, {}]]], "class_name": "Activation", "config": {"activation": "relu", "trainable": true, "name": "activation_28"}, "name": "activation_28"}, {"inbound_nodes": [[["activation_28", 0, 0, {}]]], "class_name": "Conv2D", "config": {"activation": "linear", "bias_regularizer": null, "strides": [1, 1], "data_format": "channels_last", "kernel_size": [1, 1], "dilation_rate": [1, 1], "kernel_constraint": null, "padding": "valid", "trainable": true, "bias_constraint": null, "activity_regularizer": null, "filters": 256, "use_bias": true, "name": "res4c_branch2a", "kernel_initializer": {"class_name": "VarianceScaling", "config": {"seed": null, "distribution": "uniform", "mode": "fan_avg", "scale": 1.0}}, "bias_initializer": {"class_name": "Zeros", "config": {}}, "kernel_regularizer": {"class_name": "L1L2", "config": {"l1": 0.0, "l2": 4.999999873689376e-05}}}, "name": "res4c_branch2a"}, {"inbound_nodes": [[["res4c_branch2a", 0, 0, {}]]], "class_name": "BatchNormalization", "config": {"epsilon": 0.001, "momentum": 0.95, "moving_variance_initializer": {"class_name": "Ones", "config": {}}, "scale": true, "gamma_initializer": {"class_name": "Ones", "config": {}}, "axis": 3, "trainable": true, "gamma_regularizer": null, "moving_mean_initializer": {"class_name": "Zeros", "config": {}}, "beta_initializer": {"class_name": "Zeros", "config": {}}, "name": "bn4c_branch2a", "beta_constraint": null, "center": true, "gamma_constraint": null, "beta_regularizer": null}, "name": "bn4c_branch2a"}, {"inbound_nodes": [[["bn4c_branch2a", 0, 0, {}]]], "class_name": "Activation", "config": {"activation": "relu", "trainable": true, "name": "activation_29"}, "name": "activation_29"}, {"inbound_nodes": [[["activation_29", 0, 0, {}]]], "class_name": "Conv2D", "config": {"activation": "linear", "bias_regularizer": null, "strides": [1, 1], "data_format": "channels_last", "kernel_size": [3, 3], "dilation_rate": [1, 1], "kernel_constraint": null, "padding": "same", "trainable": true, "bias_constraint": null, "activity_regularizer": null, "filters": 256, "use_bias": true, "name": "res4c_branch2b", "kernel_initializer": {"class_name": "VarianceScaling", "config": {"seed": null, "distribution": "uniform", "mode": "fan_avg", "scale": 1.0}}, "bias_initializer": {"class_name": "Zeros", "config": {}}, "kernel_regularizer": {"class_name": "L1L2", "config": {"l1": 0.0, "l2": 4.999999873689376e-05}}}, "name": "res4c_branch2b"}, {"inbound_nodes": [[["res4c_branch2b", 0, 0, {}]]], "class_name": "BatchNormalization", "config": {"epsilon": 0.001, "momentum": 0.95, "moving_variance_initializer": {"class_name": "Ones", "config": {}}, "scale": true, "gamma_initializer": {"class_name": "Ones", "config": {}}, "axis": 3, "trainable": true, "gamma_regularizer": null, "moving_mean_initializer": {"class_name": "Zeros", "config": {}}, "beta_initializer": {"class_name": "Zeros", "config": {}}, "name": "bn4c_branch2b", "beta_constraint": null, "center": true, "gamma_constraint": null, "beta_regularizer": null}, "name": "bn4c_branch2b"}, {"inbound_nodes": [[["bn4c_branch2b", 0, 0, {}]]], "class_name": "Activation", "config": {"activation": "relu", "trainable": true, "name": "activation_30"}, "name": "activation_30"}, {"inbound_nodes": [[["activation_30", 0, 0, {}]]], "class_name": "Conv2D", "config": {"activation": "linear", "bias_regularizer": null, "strides": [1, 1], "data_format": "channels_last", "kernel_size": [1, 1], "dilation_rate": [1, 1], "kernel_constraint": null, "padding": "valid", "trainable": true, "bias_constraint": null, "activity_regularizer": null, "filters": 1024, "use_bias": true, "name": "res4c_branch2c", "kernel_initializer": {"class_name": "VarianceScaling", "config": {"seed": null, "distribution": "uniform", "mode": "fan_avg", "scale": 1.0}}, "bias_initializer": {"class_name": "Zeros", "config": {}}, "kernel_regularizer": {"class_name": "L1L2", "config": {"l1": 0.0, "l2": 4.999999873689376e-05}}}, "name": "res4c_branch2c"}, {"inbound_nodes": [[["res4c_branch2c", 0, 0, {}]]], "class_name": "BatchNormalization", "config": {"epsilon": 0.001, "momentum": 0.95, "moving_variance_initializer": {"class_name": "Ones", "config": {}}, "scale": true, "gamma_initializer": {"class_name": "Ones", "config": {}}, "axis": 3, "trainable": true, "gamma_regularizer": null, "moving_mean_initializer": {"class_name": "Zeros", "config": {}}, "beta_initializer": {"class_name": "Zeros", "config": {}}, "name": "bn4c_branch2c", "beta_constraint": null, "center": true, "gamma_constraint": null, "beta_regularizer": null}, "name": "bn4c_branch2c"}, {"inbound_nodes": [[["bn4c_branch2c", 0, 0, {}], ["activation_28", 0, 0, {}]]], "class_name": "Add", "config": {"trainable": true, "name": "add_10"}, "name": "add_10"}, {"inbound_nodes": [[["add_10", 0, 0, {}]]], "class_name": "Activation", "config": {"activation": "relu", "trainable": true, "name": "activation_31"}, "name": "activation_31"}, {"inbound_nodes": [[["activation_31", 0, 0, {}]]], "class_name": "Conv2D", "config": {"activation": "linear", "bias_regularizer": null, "strides": [1, 1], "data_format": "channels_last", "kernel_size": [1, 1], "dilation_rate": [1, 1], "kernel_constraint": null, "padding": "valid", "trainable": true, "bias_constraint": null, "activity_regularizer": null, "filters": 256, "use_bias": true, "name": "res4d_branch2a", "kernel_initializer": {"class_name": "VarianceScaling", "config": {"seed": null, "distribution": "uniform", "mode": "fan_avg", "scale": 1.0}}, "bias_initializer": {"class_name": "Zeros", "config": {}}, "kernel_regularizer": {"class_name": "L1L2", "config": {"l1": 0.0, "l2": 4.999999873689376e-05}}}, "name": "res4d_branch2a"}, {"inbound_nodes": [[["res4d_branch2a", 0, 0, {}]]], "class_name": "BatchNormalization", "config": {"epsilon": 0.001, "momentum": 0.95, "moving_variance_initializer": {"class_name": "Ones", "config": {}}, "scale": true, "gamma_initializer": {"class_name": "Ones", "config": {}}, "axis": 3, "trainable": true, "gamma_regularizer": null, "moving_mean_initializer": {"class_name": "Zeros", "config": {}}, "beta_initializer": {"class_name": "Zeros", "config": {}}, "name": "bn4d_branch2a", "beta_constraint": null, "center": true, "gamma_constraint": null, "beta_regularizer": null}, "name": "bn4d_branch2a"}, {"inbound_nodes": [[["bn4d_branch2a", 0, 0, {}]]], "class_name": "Activation", "config": {"activation": "relu", "trainable": true, "name": "activation_32"}, "name": "activation_32"}, {"inbound_nodes": [[["activation_32", 0, 0, {}]]], "class_name": "Conv2D", "config": {"activation": "linear", "bias_regularizer": null, "strides": [1, 1], "data_format": "channels_last", "kernel_size": [3, 3], "dilation_rate": [1, 1], "kernel_constraint": null, "padding": "same", "trainable": true, "bias_constraint": null, "activity_regularizer": null, "filters": 256, "use_bias": true, "name": "res4d_branch2b", "kernel_initializer": {"class_name": "VarianceScaling", "config": {"seed": null, "distribution": "uniform", "mode": "fan_avg", "scale": 1.0}}, "bias_initializer": {"class_name": "Zeros", "config": {}}, "kernel_regularizer": {"class_name": "L1L2", "config": {"l1": 0.0, "l2": 4.999999873689376e-05}}}, "name": "res4d_branch2b"}, {"inbound_nodes": [[["res4d_branch2b", 0, 0, {}]]], "class_name": "BatchNormalization", "config": {"epsilon": 0.001, "momentum": 0.95, "moving_variance_initializer": {"class_name": "Ones", "config": {}}, "scale": true, "gamma_initializer": {"class_name": "Ones", "config": {}}, "axis": 3, "trainable": true, "gamma_regularizer": null, "moving_mean_initializer": {"class_name": "Zeros", "config": {}}, "beta_initializer": {"class_name": "Zeros", "config": {}}, "name": "bn4d_branch2b", "beta_constraint": null, "center": true, "gamma_constraint": null, "beta_regularizer": null}, "name": "bn4d_branch2b"}, {"inbound_nodes": [[["bn4d_branch2b", 0, 0, {}]]], "class_name": "Activation", "config": {"activation": "relu", "trainable": true, "name": "activation_33"}, "name": "activation_33"}, {"inbound_nodes": [[["activation_33", 0, 0, {}]]], "class_name": "Conv2D", "config": {"activation": "linear", "bias_regularizer": null, "strides": [1, 1], "data_format": "channels_last", "kernel_size": [1, 1], "dilation_rate": [1, 1], "kernel_constraint": null, "padding": "valid", "trainable": true, "bias_constraint": null, "activity_regularizer": null, "filters": 1024, "use_bias": true, "name": "res4d_branch2c", "kernel_initializer": {"class_name": "VarianceScaling", "config": {"seed": null, "distribution": "uniform", "mode": "fan_avg", "scale": 1.0}}, "bias_initializer": {"class_name": "Zeros", "config": {}}, "kernel_regularizer": {"class_name": "L1L2", "config": {"l1": 0.0, "l2": 4.999999873689376e-05}}}, "name": "res4d_branch2c"}, {"inbound_nodes": [[["res4d_branch2c", 0, 0, {}]]], "class_name": "BatchNormalization", "config": {"epsilon": 0.001, "momentum": 0.95, "moving_variance_initializer": {"class_name": "Ones", "config": {}}, "scale": true, "gamma_initializer": {"class_name": "Ones", "config": {}}, "axis": 3, "trainable": true, "gamma_regularizer": null, "moving_mean_initializer": {"class_name": "Zeros", "config": {}}, "beta_initializer": {"class_name": "Zeros", "config": {}}, "name": "bn4d_branch2c", "beta_constraint": null, "center": true, "gamma_constraint": null, "beta_regularizer": null}, "name": "bn4d_branch2c"}, {"inbound_nodes": [[["bn4d_branch2c", 0, 0, {}], ["activation_31", 0, 0, {}]]], "class_name": "Add", "config": {"trainable": true, "name": "add_11"}, "name": "add_11"}, {"inbound_nodes": [[["add_11", 0, 0, {}]]], "class_name": "Activation", "config": {"activation": "relu", "trainable": true, "name": "activation_34"}, "name": "activation_34"}, {"inbound_nodes": [[["activation_34", 0, 0, {}]]], "class_name": "Conv2D", "config": {"activation": "linear", "bias_regularizer": null, "strides": [1, 1], "data_format": "channels_last", "kernel_size": [1, 1], "dilation_rate": [1, 1], "kernel_constraint": null, "padding": "valid", "trainable": true, "bias_constraint": null, "activity_regularizer": null, "filters": 256, "use_bias": true, "name": "res4e_branch2a", "kernel_initializer": {"class_name": "VarianceScaling", "config": {"seed": null, "distribution": "uniform", "mode": "fan_avg", "scale": 1.0}}, "bias_initializer": {"class_name": "Zeros", "config": {}}, "kernel_regularizer": {"class_name": "L1L2", "config": {"l1": 0.0, "l2": 4.999999873689376e-05}}}, "name": "res4e_branch2a"}, {"inbound_nodes": [[["res4e_branch2a", 0, 0, {}]]], "class_name": "BatchNormalization", "config": {"epsilon": 0.001, "momentum": 0.95, "moving_variance_initializer": {"class_name": "Ones", "config": {}}, "scale": true, "gamma_initializer": {"class_name": "Ones", "config": {}}, "axis": 3, "trainable": true, "gamma_regularizer": null, "moving_mean_initializer": {"class_name": "Zeros", "config": {}}, "beta_initializer": {"class_name": "Zeros", "config": {}}, "name": "bn4e_branch2a", "beta_constraint": null, "center": true, "gamma_constraint": null, "beta_regularizer": null}, "name": "bn4e_branch2a"}, {"inbound_nodes": [[["bn4e_branch2a", 0, 0, {}]]], "class_name": "Activation", "config": {"activation": "relu", "trainable": true, "name": "activation_35"}, "name": "activation_35"}, {"inbound_nodes": [[["activation_35", 0, 0, {}]]], "class_name": "Conv2D", "config": {"activation": "linear", "bias_regularizer": null, "strides": [1, 1], "data_format": "channels_last", "kernel_size": [3, 3], "dilation_rate": [1, 1], "kernel_constraint": null, "padding": "same", "trainable": true, "bias_constraint": null, "activity_regularizer": null, "filters": 256, "use_bias": true, "name": "res4e_branch2b", "kernel_initializer": {"class_name": "VarianceScaling", "config": {"seed": null, "distribution": "uniform", "mode": "fan_avg", "scale": 1.0}}, "bias_initializer": {"class_name": "Zeros", "config": {}}, "kernel_regularizer": {"class_name": "L1L2", "config": {"l1": 0.0, "l2": 4.999999873689376e-05}}}, "name": "res4e_branch2b"}, {"inbound_nodes": [[["res4e_branch2b", 0, 0, {}]]], "class_name": "BatchNormalization", "config": {"epsilon": 0.001, "momentum": 0.95, "moving_variance_initializer": {"class_name": "Ones", "config": {}}, "scale": true, "gamma_initializer": {"class_name": "Ones", "config": {}}, "axis": 3, "trainable": true, "gamma_regularizer": null, "moving_mean_initializer": {"class_name": "Zeros", "config": {}}, "beta_initializer": {"class_name": "Zeros", "config": {}}, "name": "bn4e_branch2b", "beta_constraint": null, "center": true, "gamma_constraint": null, "beta_regularizer": null}, "name": "bn4e_branch2b"}, {"inbound_nodes": [[["bn4e_branch2b", 0, 0, {}]]], "class_name": "Activation", "config": {"activation": "relu", "trainable": true, "name": "activation_36"}, "name": "activation_36"}, {"inbound_nodes": [[["activation_36", 0, 0, {}]]], "class_name": "Conv2D", "config": {"activation": "linear", "bias_regularizer": null, "strides": [1, 1], "data_format": "channels_last", "kernel_size": [1, 1], "dilation_rate": [1, 1], "kernel_constraint": null, "padding": "valid", "trainable": true, "bias_constraint": null, "activity_regularizer": null, "filters": 1024, "use_bias": true, "name": "res4e_branch2c", "kernel_initializer": {"class_name": "VarianceScaling", "config": {"seed": null, "distribution": "uniform", "mode": "fan_avg", "scale": 1.0}}, "bias_initializer": {"class_name": "Zeros", "config": {}}, "kernel_regularizer": {"class_name": "L1L2", "config": {"l1": 0.0, "l2": 4.999999873689376e-05}}}, "name": "res4e_branch2c"}, {"inbound_nodes": [[["res4e_branch2c", 0, 0, {}]]], "class_name": "BatchNormalization", "config": {"epsilon": 0.001, "momentum": 0.95, "moving_variance_initializer": {"class_name": "Ones", "config": {}}, "scale": true, "gamma_initializer": {"class_name": "Ones", "config": {}}, "axis": 3, "trainable": true, "gamma_regularizer": null, "moving_mean_initializer": {"class_name": "Zeros", "config": {}}, "beta_initializer": {"class_name": "Zeros", "config": {}}, "name": "bn4e_branch2c", "beta_constraint": null, "center": true, "gamma_constraint": null, "beta_regularizer": null}, "name": "bn4e_branch2c"}, {"inbound_nodes": [[["bn4e_branch2c", 0, 0, {}], ["activation_34", 0, 0, {}]]], "class_name": "Add", "config": {"trainable": true, "name": "add_12"}, "name": "add_12"}, {"inbound_nodes": [[["add_12", 0, 0, {}]]], "class_name": "Activation", "config": {"activation": "relu", "trainable": true, "name": "activation_37"}, "name": "activation_37"}, {"inbound_nodes": [[["activation_37", 0, 0, {}]]], "class_name": "Conv2D", "config": {"activation": "linear", "bias_regularizer": null, "strides": [1, 1], "data_format": "channels_last", "kernel_size": [1, 1], "dilation_rate": [1, 1], "kernel_constraint": null, "padding": "valid", "trainable": true, "bias_constraint": null, "activity_regularizer": null, "filters": 256, "use_bias": true, "name": "res4f_branch2a", "kernel_initializer": {"class_name": "VarianceScaling", "config": {"seed": null, "distribution": "uniform", "mode": "fan_avg", "scale": 1.0}}, "bias_initializer": {"class_name": "Zeros", "config": {}}, "kernel_regularizer": {"class_name": "L1L2", "config": {"l1": 0.0, "l2": 4.999999873689376e-05}}}, "name": "res4f_branch2a"}, {"inbound_nodes": [[["res4f_branch2a", 0, 0, {}]]], "class_name": "BatchNormalization", "config": {"epsilon": 0.001, "momentum": 0.95, "moving_variance_initializer": {"class_name": "Ones", "config": {}}, "scale": true, "gamma_initializer": {"class_name": "Ones", "config": {}}, "axis": 3, "trainable": true, "gamma_regularizer": null, "moving_mean_initializer": {"class_name": "Zeros", "config": {}}, "beta_initializer": {"class_name": "Zeros", "config": {}}, "name": "bn4f_branch2a", "beta_constraint": null, "center": true, "gamma_constraint": null, "beta_regularizer": null}, "name": "bn4f_branch2a"}, {"inbound_nodes": [[["bn4f_branch2a", 0, 0, {}]]], "class_name": "Activation", "config": {"activation": "relu", "trainable": true, "name": "activation_38"}, "name": "activation_38"}, {"inbound_nodes": [[["activation_38", 0, 0, {}]]], "class_name": "Conv2D", "config": {"activation": "linear", "bias_regularizer": null, "strides": [1, 1], "data_format": "channels_last", "kernel_size": [3, 3], "dilation_rate": [1, 1], "kernel_constraint": null, "padding": "same", "trainable": true, "bias_constraint": null, "activity_regularizer": null, "filters": 256, "use_bias": true, "name": "res4f_branch2b", "kernel_initializer": {"class_name": "VarianceScaling", "config": {"seed": null, "distribution": "uniform", "mode": "fan_avg", "scale": 1.0}}, "bias_initializer": {"class_name": "Zeros", "config": {}}, "kernel_regularizer": {"class_name": "L1L2", "config": {"l1": 0.0, "l2": 4.999999873689376e-05}}}, "name": "res4f_branch2b"}, {"inbound_nodes": [[["res4f_branch2b", 0, 0, {}]]], "class_name": "BatchNormalization", "config": {"epsilon": 0.001, "momentum": 0.95, "moving_variance_initializer": {"class_name": "Ones", "config": {}}, "scale": true, "gamma_initializer": {"class_name": "Ones", "config": {}}, "axis": 3, "trainable": true, "gamma_regularizer": null, "moving_mean_initializer": {"class_name": "Zeros", "config": {}}, "beta_initializer": {"class_name": "Zeros", "config": {}}, "name": "bn4f_branch2b", "beta_constraint": null, "center": true, "gamma_constraint": null, "beta_regularizer": null}, "name": "bn4f_branch2b"}, {"inbound_nodes": [[["bn4f_branch2b", 0, 0, {}]]], "class_name": "Activation", "config": {"activation": "relu", "trainable": true, "name": "activation_39"}, "name": "activation_39"}, {"inbound_nodes": [[["activation_39", 0, 0, {}]]], "class_name": "Conv2D", "config": {"activation": "linear", "bias_regularizer": null, "strides": [1, 1], "data_format": "channels_last", "kernel_size": [1, 1], "dilation_rate": [1, 1], "kernel_constraint": null, "padding": "valid", "trainable": true, "bias_constraint": null, "activity_regularizer": null, "filters": 1024, "use_bias": true, "name": "res4f_branch2c", "kernel_initializer": {"class_name": "VarianceScaling", "config": {"seed": null, "distribution": "uniform", "mode": "fan_avg", "scale": 1.0}}, "bias_initializer": {"class_name": "Zeros", "config": {}}, "kernel_regularizer": {"class_name": "L1L2", "config": {"l1": 0.0, "l2": 4.999999873689376e-05}}}, "name": "res4f_branch2c"}, {"inbound_nodes": [[["res4f_branch2c", 0, 0, {}]]], "class_name": "BatchNormalization", "config": {"epsilon": 0.001, "momentum": 0.95, "moving_variance_initializer": {"class_name": "Ones", "config": {}}, "scale": true, "gamma_initializer": {"class_name": "Ones", "config": {}}, "axis": 3, "trainable": true, "gamma_regularizer": null, "moving_mean_initializer": {"class_name": "Zeros", "config": {}}, "beta_initializer": {"class_name": "Zeros", "config": {}}, "name": "bn4f_branch2c", "beta_constraint": null, "center": true, "gamma_constraint": null, "beta_regularizer": null}, "name": "bn4f_branch2c"}, {"inbound_nodes": [[["bn4f_branch2c", 0, 0, {}], ["activation_37", 0, 0, {}]]], "class_name": "Add", "config": {"trainable": true, "name": "add_13"}, "name": "add_13"}, {"inbound_nodes": [[["add_13", 0, 0, {}]]], "class_name": "Activation", "config": {"activation": "relu", "trainable": true, "name": "activation_40"}, "name": "activation_40"}, {"inbound_nodes": [[["activation_40", 0, 0, {}]]], "class_name": "Conv2D", "config": {"activation": "linear", "bias_regularizer": null, "strides": [1, 1], "data_format": "channels_last", "kernel_size": [1, 1], "dilation_rate": [1, 1], "kernel_constraint": null, "padding": "valid", "trainable": true, "bias_constraint": null, "activity_regularizer": null, "filters": 512, "use_bias": true, "name": "res5a_branch2a", "kernel_initializer": {"class_name": "VarianceScaling", "config": {"seed": null, "distribution": "uniform", "mode": "fan_avg", "scale": 1.0}}, "bias_initializer": {"class_name": "Zeros", "config": {}}, "kernel_regularizer": {"class_name": "L1L2", "config": {"l1": 0.0, "l2": 4.999999873689376e-05}}}, "name": "res5a_branch2a"}, {"inbound_nodes": [[["res5a_branch2a", 0, 0, {}]]], "class_name": "BatchNormalization", "config": {"epsilon": 0.001, "momentum": 0.95, "moving_variance_initializer": {"class_name": "Ones", "config": {}}, "scale": true, "gamma_initializer": {"class_name": "Ones", "config": {}}, "axis": 3, "trainable": true, "gamma_regularizer": null, "moving_mean_initializer": {"class_name": "Zeros", "config": {}}, "beta_initializer": {"class_name": "Zeros", "config": {}}, "name": "bn5a_branch2a", "beta_constraint": null, "center": true, "gamma_constraint": null, "beta_regularizer": null}, "name": "bn5a_branch2a"}, {"inbound_nodes": [[["bn5a_branch2a", 0, 0, {}]]], "class_name": "Activation", "config": {"activation": "relu", "trainable": true, "name": "activation_41"}, "name": "activation_41"}, {"inbound_nodes": [[["activation_41", 0, 0, {}]]], "class_name": "Conv2D", "config": {"activation": "linear", "bias_regularizer": null, "strides": [1, 1], "data_format": "channels_last", "kernel_size": [3, 3], "dilation_rate": [2, 2], "kernel_constraint": null, "padding": "same", "trainable": true, "bias_constraint": null, "activity_regularizer": null, "filters": 512, "use_bias": true, "name": "res5a_branch2b", "kernel_initializer": {"class_name": "VarianceScaling", "config": {"seed": null, "distribution": "uniform", "mode": "fan_avg", "scale": 1.0}}, "bias_initializer": {"class_name": "Zeros", "config": {}}, "kernel_regularizer": {"class_name": "L1L2", "config": {"l1": 0.0, "l2": 4.999999873689376e-05}}}, "name": "res5a_branch2b"}, {"inbound_nodes": [[["res5a_branch2b", 0, 0, {}]]], "class_name": "BatchNormalization", "config": {"epsilon": 0.001, "momentum": 0.95, "moving_variance_initializer": {"class_name": "Ones", "config": {}}, "scale": true, "gamma_initializer": {"class_name": "Ones", "config": {}}, "axis": 3, "trainable": true, "gamma_regularizer": null, "moving_mean_initializer": {"class_name": "Zeros", "config": {}}, "beta_initializer": {"class_name": "Zeros", "config": {}}, "name": "bn5a_branch2b", "beta_constraint": null, "center": true, "gamma_constraint": null, "beta_regularizer": null}, "name": "bn5a_branch2b"}, {"inbound_nodes": [[["bn5a_branch2b", 0, 0, {}]]], "class_name": "Activation", "config": {"activation": "relu", "trainable": true, "name": "activation_42"}, "name": "activation_42"}, {"inbound_nodes": [[["activation_42", 0, 0, {}]]], "class_name": "Conv2D", "config": {"activation": "linear", "bias_regularizer": null, "strides": [1, 1], "data_format": "channels_last", "kernel_size": [1, 1], "dilation_rate": [1, 1], "kernel_constraint": null, "padding": "valid", "trainable": true, "bias_constraint": null, "activity_regularizer": null, "filters": 2048, "use_bias": true, "name": "res5a_branch2c", "kernel_initializer": {"class_name": "VarianceScaling", "config": {"seed": null, "distribution": "uniform", "mode": "fan_avg", "scale": 1.0}}, "bias_initializer": {"class_name": "Zeros", "config": {}}, "kernel_regularizer": {"class_name": "L1L2", "config": {"l1": 0.0, "l2": 4.999999873689376e-05}}}, "name": "res5a_branch2c"}, {"inbound_nodes": [[["activation_40", 0, 0, {}]]], "class_name": "Conv2D", "config": {"activation": "linear", "bias_regularizer": null, "strides": [1, 1], "data_format": "channels_last", "kernel_size": [1, 1], "dilation_rate": [1, 1], "kernel_constraint": null, "padding": "valid", "trainable": true, "bias_constraint": null, "activity_regularizer": null, "filters": 2048, "use_bias": true, "name": "res5a_branch1", "kernel_initializer": {"class_name": "VarianceScaling", "config": {"seed": null, "distribution": "uniform", "mode": "fan_avg", "scale": 1.0}}, "bias_initializer": {"class_name": "Zeros", "config": {}}, "kernel_regularizer": {"class_name": "L1L2", "config": {"l1": 0.0, "l2": 4.999999873689376e-05}}}, "name": "res5a_branch1"}, {"inbound_nodes": [[["res5a_branch2c", 0, 0, {}]]], "class_name": "BatchNormalization", "config": {"epsilon": 0.001, "momentum": 0.95, "moving_variance_initializer": {"class_name": "Ones", "config": {}}, "scale": true, "gamma_initializer": {"class_name": "Ones", "config": {}}, "axis": 3, "trainable": true, "gamma_regularizer": null, "moving_mean_initializer": {"class_name": "Zeros", "config": {}}, "beta_initializer": {"class_name": "Zeros", "config": {}}, "name": "bn5a_branch2c", "beta_constraint": null, "center": true, "gamma_constraint": null, "beta_regularizer": null}, "name": "bn5a_branch2c"}, {"inbound_nodes": [[["res5a_branch1", 0, 0, {}]]], "class_name": "BatchNormalization", "config": {"epsilon": 0.001, "momentum": 0.95, "moving_variance_initializer": {"class_name": "Ones", "config": {}}, "scale": true, "gamma_initializer": {"class_name": "Ones", "config": {}}, "axis": 3, "trainable": true, "gamma_regularizer": null, "moving_mean_initializer": {"class_name": "Zeros", "config": {}}, "beta_initializer": {"class_name": "Zeros", "config": {}}, "name": "bn5a_branch1", "beta_constraint": null, "center": true, "gamma_constraint": null, "beta_regularizer": null}, "name": "bn5a_branch1"}, {"inbound_nodes": [[["bn5a_branch2c", 0, 0, {}], ["bn5a_branch1", 0, 0, {}]]], "class_name": "Add", "config": {"trainable": true, "name": "add_14"}, "name": "add_14"}, {"inbound_nodes": [[["add_14", 0, 0, {}]]], "class_name": "Activation", "config": {"activation": "relu", "trainable": true, "name": "activation_43"}, "name": "activation_43"}, {"inbound_nodes": [[["activation_43", 0, 0, {}]]], "class_name": "Conv2D", "config": {"activation": "linear", "bias_regularizer": null, "strides": [1, 1], "data_format": "channels_last", "kernel_size": [1, 1], "dilation_rate": [1, 1], "kernel_constraint": null, "padding": "valid", "trainable": true, "bias_constraint": null, "activity_regularizer": null, "filters": 512, "use_bias": true, "name": "res5b_branch2a", "kernel_initializer": {"class_name": "VarianceScaling", "config": {"seed": null, "distribution": "uniform", "mode": "fan_avg", "scale": 1.0}}, "bias_initializer": {"class_name": "Zeros", "config": {}}, "kernel_regularizer": {"class_name": "L1L2", "config": {"l1": 0.0, "l2": 4.999999873689376e-05}}}, "name": "res5b_branch2a"}, {"inbound_nodes": [[["res5b_branch2a", 0, 0, {}]]], "class_name": "BatchNormalization", "config": {"epsilon": 0.001, "momentum": 0.95, "moving_variance_initializer": {"class_name": "Ones", "config": {}}, "scale": true, "gamma_initializer": {"class_name": "Ones", "config": {}}, "axis": 3, "trainable": true, "gamma_regularizer": null, "moving_mean_initializer": {"class_name": "Zeros", "config": {}}, "beta_initializer": {"class_name": "Zeros", "config": {}}, "name": "bn5b_branch2a", "beta_constraint": null, "center": true, "gamma_constraint": null, "beta_regularizer": null}, "name": "bn5b_branch2a"}, {"inbound_nodes": [[["bn5b_branch2a", 0, 0, {}]]], "class_name": "Activation", "config": {"activation": "relu", "trainable": true, "name": "activation_44"}, "name": "activation_44"}, {"inbound_nodes": [[["activation_44", 0, 0, {}]]], "class_name": "Conv2D", "config": {"activation": "linear", "bias_regularizer": null, "strides": [1, 1], "data_format": "channels_last", "kernel_size": [3, 3], "dilation_rate": [2, 2], "kernel_constraint": null, "padding": "same", "trainable": true, "bias_constraint": null, "activity_regularizer": null, "filters": 512, "use_bias": true, "name": "res5b_branch2b", "kernel_initializer": {"class_name": "VarianceScaling", "config": {"seed": null, "distribution": "uniform", "mode": "fan_avg", "scale": 1.0}}, "bias_initializer": {"class_name": "Zeros", "config": {}}, "kernel_regularizer": {"class_name": "L1L2", "config": {"l1": 0.0, "l2": 4.999999873689376e-05}}}, "name": "res5b_branch2b"}, {"inbound_nodes": [[["res5b_branch2b", 0, 0, {}]]], "class_name": "BatchNormalization", "config": {"epsilon": 0.001, "momentum": 0.95, "moving_variance_initializer": {"class_name": "Ones", "config": {}}, "scale": true, "gamma_initializer": {"class_name": "Ones", "config": {}}, "axis": 3, "trainable": true, "gamma_regularizer": null, "moving_mean_initializer": {"class_name": "Zeros", "config": {}}, "beta_initializer": {"class_name": "Zeros", "config": {}}, "name": "bn5b_branch2b", "beta_constraint": null, "center": true, "gamma_constraint": null, "beta_regularizer": null}, "name": "bn5b_branch2b"}, {"inbound_nodes": [[["bn5b_branch2b", 0, 0, {}]]], "class_name": "Activation", "config": {"activation": "relu", "trainable": true, "name": "activation_45"}, "name": "activation_45"}, {"inbound_nodes": [[["activation_45", 0, 0, {}]]], "class_name": "Conv2D", "config": {"activation": "linear", "bias_regularizer": null, "strides": [1, 1], "data_format": "channels_last", "kernel_size": [1, 1], "dilation_rate": [1, 1], "kernel_constraint": null, "padding": "valid", "trainable": true, "bias_constraint": null, "activity_regularizer": null, "filters": 2048, "use_bias": true, "name": "res5b_branch2c", "kernel_initializer": {"class_name": "VarianceScaling", "config": {"seed": null, "distribution": "uniform", "mode": "fan_avg", "scale": 1.0}}, "bias_initializer": {"class_name": "Zeros", "config": {}}, "kernel_regularizer": {"class_name": "L1L2", "config": {"l1": 0.0, "l2": 4.999999873689376e-05}}}, "name": "res5b_branch2c"}, {"inbound_nodes": [[["res5b_branch2c", 0, 0, {}]]], "class_name": "BatchNormalization", "config": {"epsilon": 0.001, "momentum": 0.95, "moving_variance_initializer": {"class_name": "Ones", "config": {}}, "scale": true, "gamma_initializer": {"class_name": "Ones", "config": {}}, "axis": 3, "trainable": true, "gamma_regularizer": null, "moving_mean_initializer": {"class_name": "Zeros", "config": {}}, "beta_initializer": {"class_name": "Zeros", "config": {}}, "name": "bn5b_branch2c", "beta_constraint": null, "center": true, "gamma_constraint": null, "beta_regularizer": null}, "name": "bn5b_branch2c"}, {"inbound_nodes": [[["bn5b_branch2c", 0, 0, {}], ["activation_43", 0, 0, {}]]], "class_name": "Add", "config": {"trainable": true, "name": "add_15"}, "name": "add_15"}, {"inbound_nodes": [[["add_15", 0, 0, {}]]], "class_name": "Activation", "config": {"activation": "relu", "trainable": true, "name": "activation_46"}, "name": "activation_46"}, {"inbound_nodes": [[["activation_46", 0, 0, {}]]], "class_name": "Conv2D", "config": {"activation": "linear", "bias_regularizer": null, "strides": [1, 1], "data_format": "channels_last", "kernel_size": [1, 1], "dilation_rate": [1, 1], "kernel_constraint": null, "padding": "valid", "trainable": true, "bias_constraint": null, "activity_regularizer": null, "filters": 512, "use_bias": true, "name": "res5c_branch2a", "kernel_initializer": {"class_name": "VarianceScaling", "config": {"seed": null, "distribution": "uniform", "mode": "fan_avg", "scale": 1.0}}, "bias_initializer": {"class_name": "Zeros", "config": {}}, "kernel_regularizer": {"class_name": "L1L2", "config": {"l1": 0.0, "l2": 4.999999873689376e-05}}}, "name": "res5c_branch2a"}, {"inbound_nodes": [[["res5c_branch2a", 0, 0, {}]]], "class_name": "BatchNormalization", "config": {"epsilon": 0.001, "momentum": 0.95, "moving_variance_initializer": {"class_name": "Ones", "config": {}}, "scale": true, "gamma_initializer": {"class_name": "Ones", "config": {}}, "axis": 3, "trainable": true, "gamma_regularizer": null, "moving_mean_initializer": {"class_name": "Zeros", "config": {}}, "beta_initializer": {"class_name": "Zeros", "config": {}}, "name": "bn5c_branch2a", "beta_constraint": null, "center": true, "gamma_constraint": null, "beta_regularizer": null}, "name": "bn5c_branch2a"}, {"inbound_nodes": [[["bn5c_branch2a", 0, 0, {}]]], "class_name": "Activation", "config": {"activation": "relu", "trainable": true, "name": "activation_47"}, "name": "activation_47"}, {"inbound_nodes": [[["activation_47", 0, 0, {}]]], "class_name": "Conv2D", "config": {"activation": "linear", "bias_regularizer": null, "strides": [1, 1], "data_format": "channels_last", "kernel_size": [3, 3], "dilation_rate": [2, 2], "kernel_constraint": null, "padding": "same", "trainable": true, "bias_constraint": null, "activity_regularizer": null, "filters": 512, "use_bias": true, "name": "res5c_branch2b", "kernel_initializer": {"class_name": "VarianceScaling", "config": {"seed": null, "distribution": "uniform", "mode": "fan_avg", "scale": 1.0}}, "bias_initializer": {"class_name": "Zeros", "config": {}}, "kernel_regularizer": {"class_name": "L1L2", "config": {"l1": 0.0, "l2": 4.999999873689376e-05}}}, "name": "res5c_branch2b"}, {"inbound_nodes": [[["res5c_branch2b", 0, 0, {}]]], "class_name": "BatchNormalization", "config": {"epsilon": 0.001, "momentum": 0.95, "moving_variance_initializer": {"class_name": "Ones", "config": {}}, "scale": true, "gamma_initializer": {"class_name": "Ones", "config": {}}, "axis": 3, "trainable": true, "gamma_regularizer": null, "moving_mean_initializer": {"class_name": "Zeros", "config": {}}, "beta_initializer": {"class_name": "Zeros", "config": {}}, "name": "bn5c_branch2b", "beta_constraint": null, "center": true, "gamma_constraint": null, "beta_regularizer": null}, "name": "bn5c_branch2b"}, {"inbound_nodes": [[["bn5c_branch2b", 0, 0, {}]]], "class_name": "Activation", "config": {"activation": "relu", "trainable": true, "name": "activation_48"}, "name": "activation_48"}, {"inbound_nodes": [[["activation_48", 0, 0, {}]]], "class_name": "Conv2D", "config": {"activation": "linear", "bias_regularizer": null, "strides": [1, 1], "data_format": "channels_last", "kernel_size": [1, 1], "dilation_rate": [1, 1], "kernel_constraint": null, "padding": "valid", "trainable": true, "bias_constraint": null, "activity_regularizer": null, "filters": 2048, "use_bias": true, "name": "res5c_branch2c", "kernel_initializer": {"class_name": "VarianceScaling", "config": {"seed": null, "distribution": "uniform", "mode": "fan_avg", "scale": 1.0}}, "bias_initializer": {"class_name": "Zeros", "config": {}}, "kernel_regularizer": {"class_name": "L1L2", "config": {"l1": 0.0, "l2": 4.999999873689376e-05}}}, "name": "res5c_branch2c"}, {"inbound_nodes": [[["res5c_branch2c", 0, 0, {}]]], "class_name": "BatchNormalization", "config": {"epsilon": 0.001, "momentum": 0.95, "moving_variance_initializer": {"class_name": "Ones", "config": {}}, "scale": true, "gamma_initializer": {"class_name": "Ones", "config": {}}, "axis": 3, "trainable": true, "gamma_regularizer": null, "moving_mean_initializer": {"class_name": "Zeros", "config": {}}, "beta_initializer": {"class_name": "Zeros", "config": {}}, "name": "bn5c_branch2c", "beta_constraint": null, "center": true, "gamma_constraint": null, "beta_regularizer": null}, "name": "bn5c_branch2c"}, {"inbound_nodes": [[["bn5c_branch2c", 0, 0, {}], ["activation_46", 0, 0, {}]]], "class_name": "Add", "config": {"trainable": true, "name": "add_16"}, "name": "add_16"}, {"inbound_nodes": [[["add_16", 0, 0, {}]]], "class_name": "Activation", "config": {"activation": "relu", "trainable": true, "name": "activation_49"}, "name": "activation_49"}, {"inbound_nodes": [[["activation_49", 0, 0, {}]]], "class_name": "Conv2D", "config": {"activation": "linear", "bias_regularizer": null, "strides": [1, 1], "data_format": "channels_last", "kernel_size": [1, 1], "dilation_rate": [1, 1], "kernel_constraint": null, "padding": "same", "trainable": true, "bias_constraint": null, "activity_regularizer": null, "filters": 8, "use_bias": true, "name": "conv2d_1", "kernel_initializer": {"class_name": "VarianceScaling", "config": {"seed": null, "distribution": "normal", "mode": "fan_in", "scale": 2.0}}, "bias_initializer": {"class_name": "Zeros", "config": {}}, "kernel_regularizer": {"class_name": "L1L2", "config": {"l1": 0.0, "l2": 4.999999873689376e-05}}}, "name": "conv2d_1"}, {"inbound_nodes": [[["conv2d_1", 0, 0, {}]]], "class_name": "BilinearUpSampling2D", "config": {"target_size": [512, 512], "trainable": true, "name": "bilinear_up_sampling2d_1", "size": [1, 1]}, "name": "bilinear_up_sampling2d_1"}], "name": "model_1"}, "keras_version": "2.1.5"}